Assignment4/GesturesAccel_incomplete/app/src/main/assets/kaiTan.tflite (tflite, 19416 bytes, 8 tensors)

sequential/dense/BiasAdd/ReadVariableOp f4 [16]
0	0xbe6a9f37	-0.22912298
1	0xbdfdce4b	-0.12392863
2	0xbed9c71c	-0.4253472
3	0xbdf168fc	-0.11787602
4	0xbeecab54	-0.46224463
5	0xbeb3d745	-0.35125175
6	0x3fdce08a	1.7256024
7	0xbee31ddb	-0.44358715
8	0xbe7a6a16	-0.24454531
9	0x3b564365	0.003269398
10	0x400981e3	2.1485527
11	0xbe0aa0d3	-0.13537912
12	0xbeb0f4aa	-0.34561664
13	0xbee3a825	-0.44464222
14	0x3e449b7d	0.19199939
15	0x3e9711ee	0.29505867

sequential/dense_1/BiasAdd/ReadVariableOp f4 [2]
0	0xbf6a8661	-0.91611296
1	0x3f6a864b	0.91611165

sequential/dense/MatMul f4 [16, 224]
0	0x3c1bc951	0.009508447
1	0x3a818009	0.0009880076
2	0xbedc6590	-0.43046236
3	0x3d235753	0.0398782
4	0x3d012255	0.031526882
5	0x3d92d917	0.07170313
6	0x3d224616	0.03961762
7	0x3c26c515	0.010178824
8	0xbea5128f	-0.32240722
9	0xbe39c6e4	-0.18142277
10	0xbe61f652	-0.2206662
11	0xbe19d48f	-0.15022491
12	0xbe229cab	-0.15880077
13	0xbede2d5c	-0.4339398
14	0xbe05dab3	-0.13071708
15	0xbf08bd31	-0.53413683
16	0xbe28d7ed	-0.16488619
17	0xbd9ab8ba	-0.07554765
18	0x3caf0cfd	0.021368498
19	0xbde3b959	-0.11119337
20	0xbe248d72	-0.16069582
21	0x3e2b2db9	0.1671666
22	0xbe572c1a	-0.21012917
23	0xbd7d6062	-0.061859496
24	0xbe7ece7c	-0.24883455
25	0xbc5e9841	-0.013586105
26	0x3d670b65	0.05640735
27	0xbe32575d	-0.17416139
28	0xbeab215e	-0.33423895
29	0x3dbe32a3	0.09287002
30	0x3d2c6dd4	0.042096928
31	0xbed3f78d	-0.41399804
32	0xbd3ecc01	-0.046581272
33	0xbd5b22e9	-0.05350009
34	0xbd7135be	-0.058889143
35	0xbe3e1459	-0.1856245
36	0x3d0497f5	0.03237148
37	0xbcdf8758	-0.027286217
38	0xbe2111f4	-0.15729505
39	0x3d1759e3	0.036950957
40	0xbe6f79b7	-0.23386274
41	0xbdce652e	-0.10077892
42	0xbd34d476	-0.04414793
43	0xbe1b7823	-0.15182547
44	0xbcb8e536	-0.022570234
45	0xbcb73441	-0.022363784
46	0xbd1b3096	-0.037888132
47	0xbe35dc8b	-0.17759912
48	0x3ea4a434	0.32156527
49	0xbe1c7c7b	-0.1528186
50	0x3c911101	0.017708303
51	0xbe0fb32e	-0.14033195
52	0x3c603748	0.013685055
53	0x3ebed7bb	0.37273964
54	0xbe19cbf7	-0.15019213
55	0xbdc35793	-0.09538188
56	0x3cd37836	0.025814157
57	0x3ea97997	0.33100578
58	0x3e0d7c76	0.1381701
59	0xbd6b8316	-0.05749806
60	0xbdf3ba1d	-0.11900733
61	0x3dad2caa	0.084557846
62	0x3d6110df	0.05494773
63	0xbe2db998	-0.1696533
64	0x3e4b3733	0.19845276
65	0xbb4b37d7	-0.0031008625
66	0xbd62882e	-0.055305652
67	0xbe10cd5d	-0.1414084
68	0x3bba1d80	0.005679786
69	0x3e71f555	0.23628743
70	0xbeb6afca	-0.3568099
71	0x3cc09858	0.023510143
72	0x3e240adf	0.16019772
73	0x3d7d03df	0.06177127
74	0x3e23a0cb	0.15979306
75	0xbd89ff12	-0.06738104
76	0xbe31d44a	-0.17366138
77	0x3e2f7f75	0.17138465
78	0x3eb9d59e	0.3629579
79	0xbe4f1b63	-0.20225291
80	0x3e81bb2c	0.25338113
81	0xbdb4a9fd	-0.08821485
82	0x3df27eaf	0.11840569
83	0xbe3f465b	-0.18679182
84	0xbde8aea4	-0.11361435
85	0x3e62700b	0.22113054
86	0xbedb9dab	-0.4289373
87	0xbc10bac8	-0.008833595
88	0xbd1572cc	-0.036486432
89	0xbd0f117c	-0.034928784
90	0x3e0cfb45	0.13767727
91	0xbd55b608	-0.05217555
92	0x3e1e4fc7	0.1546012
93	0x3e6aeebe	0.22942635
94	0x3de58f87	0.11209016
95	0xbbe07126	-0.006849426
96	0x3f03f8ed	0.51551706
97	0x3ecc31f7	0.3988187
98	0x3e171155	0.14752705
99	0xbd334cf6	-0.043774568
100	0xbd9e990a	-0.07744034
101	0x3e2f078c	0.17092723
102	0xbe1cef45	-0.15325649
103	0x3dae4598	0.08509368
104	0xbd990f7c	-0.074736565
105	0x3dd08173	0.101809405
106	0x3e16e078	0.14734066
107	0x3cf78f82	0.030219797
108	0x3d1e0bda	0.03858552
109	0x3e48336d	0.19550867
110	0x3e3b5b13	0.18296461
111	0x3d05cb77	0.032664742
112	0x3edf60ea	0.43628627
113	0x3ce609aa	0.02808078
114	0x3d856f19	0.06515331
115	0xbd1b1fdc	-0.03787218
116	0xbca12dd4	-0.019675173
117	0x3e34d15a	0.17657986
118	0xbed213fd	-0.41030875
119	0xbd039194	-0.032121256
120	0xbd5f0ced	-0.054455686
121	0xbd787a79	-0.060663674
122	0xbcb2163d	-0.02173912
123	0x3dd54f6f	0.104155414
124	0x3c56bfe6	0.013107276
125	0x3eb868f6	0.3601758
126	0x3c77aabd	0.015116391
127	0xbdd4023d	-0.103519894
128	0x3e8af0cb	0.27136835
129	0x3ca138d8	0.019680426
130	0xbdaed02a	-0.08535798
131	0xbe0122db	-0.12610953
132	0xbe3b3237	-0.18280874
133	0x3e52b65b	0.20577376
134	0xbe3266bf	-0.17422007
135	0xbb95b4e8	-0.004568685
136	0x3d087507	0.03331473
137	0x3e174d7a	0.14775649
138	0x3e9154ca	0.28385
139	0xbca5139a	-0.020150948
140	0xbe560e6b	-0.20903938
141	0xbb893e77	-0.0041883546
142	0x3c23069d	0.009950307
143	0x3c9eb338	0.019372568
144	0x3ea03164	0.31287682
145	0xbcbb0201	-0.022828104
146	0xbde24120	-0.11047578
147	0xbdcbfe5f	-0.09960627
148	0x3e17a53e	0.14809129
149	0x3ea32f81	0.3187218
150	0xbe7b48fd	-0.24539562
151	0x3cd69c35	0.026197532
152	0x3df84b1c	0.12123701
153	0x3e5b1a8a	0.21396843
154	0x3eb96b7c	0.36214817
155	0xbcf86e9a	-0.030326176
156	0x3cdb19b7	0.02674566
157	0xbd086cf1	-0.03330702
158	0x3e340a55	0.17582066
159	0xbd422746	-0.047400735
160	0x3e20d2f1	0.15705468
161	0xbdb2a09b	-0.08722039
162	0xbdda522a	-0.10660203
163	0xbd2bde14	-0.041959837
164	0x3e03e8d4	0.12881786
165	0x3e82dc8d	0.25558892
166	0xbd6eb8ea	-0.058281817
167	0xbe07e0ea	-0.13269392
168	0xbb8c6851	-0.0042848964
169	0x3d91054f	0.07081091
170	0xbdbfd0fb	-0.09366032
171	0x3cd12505	0.025530348
172	0xbc80060f	-0.015627889
173	0xbe06a27f	-0.13147925
174	0x3ddf40c8	0.10901028
175	0xbdf4a4b9	-0.11945481
176	0x3e46a8dd	0.19400354
177	0x3c1f333f	0.009716808
178	0x3c925a1f	0.017865239
179	0xbd0c52e5	-0.034258742
180	0x3df7f0e6	0.121064946
181	0x3ea0525a	0.3131283
182	0xbeae3e0d	-0.34031716
183	0xbdc9befe	-0.09850882
184	0xbe0206fe	-0.1269798
185	0xbe1d40e1	-0.1535678
186	0xbda1a8e5	-0.07893542
187	0xbe93d346	-0.28872126
188	0xbddae8ce	-0.10688935
189	0xbcd4e691	-0.025988849
190	0xbded5aa6	-0.115895554
191	0xbdc81783	-0.097701095
192	0xbe5f88de	-0.21829554
193	0xbd85600f	-0.06512462
194	0xbe5e8b52	-0.21732834
195	0x3e719eeb	0.23595779
196	0xbcd88b46	-0.026433598
197	0xbe9cb200	-0.30604553
198	0xbdba2dcf	-0.090907685
199	0x3c899864	0.016796298
200	0xbe0b1782	-0.13583186
201	0xbf13901c	-0.5764177
202	0xbe41591c	-0.18881649
203	0xbea5841c	-0.32327354
204	0xbef9ff0b	-0.48827395
205	0xbe8c5fc2	-0.27416807
206	0xbe509c51	-0.2037213
207	0xbe600477	-0.21876703
208	0xbe36d339	-0.17854013
209	0x3d7479b5	0.05968638
210	0xbd5e879a	-0.05432854
211	0x3d3d913f	0.046281096
212	0xbdaad57a	-0.08341499
213	0xbe077898	-0.13229597
214	0xbe6fc994	-0.2341674
215	0xbb979c0b	-0.004626756
216	0xbe34171a	-0.17586938
217	0xbe263b9f	-0.16233681
218	0xbd671043	-0.056411993
219	0xbe6f60c2	-0.23376754
220	0xbd48cb1e	-0.049021833
221	0xbee32da5	-0.44370762
222	0xbe3841a1	-0.17993785
223	0xbdbc5452	-0.0919577
224	0x3ccaeda8	0.024771526
225	0xbd4a2e6a	-0.04936067
226	0x3e3e7edf	0.18603085
227	0xbc991526	-0.018686842
228	0xbd7e1abf	-0.062037226
229	0xbe221f61	-0.15832283
230	0x3dbfb063	0.09359815
231	0xbd305fa1	-0.04305995
232	0xbe01ae9d	-0.12664266
233	0x3c8ac9dc	0.016941957
234	0x3d315761	0.04329622
235	0xbe047638	-0.12935722
236	0xbc07d8e2	-0.008291455
237	0xbd84f7ad	-0.06492553
238	0xbe110257	-0.14161049
239	0xbd719351	-0.058978382
240	0x3c39eb32	0.011347579
241	0xbcce7ae8	-0.02520509
242	0x3c6d1932	0.014471339
243	0xbda95481	-0.08268071
244	0x3cd73659	0.026271032
245	0x3e0474f5	0.1293524
246	0xbd8b90a4	-0.068146974
247	0xbe7142f3	-0.23560695
248	0x394c9d5f	0.00019513581
249	0x3c0d76db	0.008634294
250	0xbc1f3771	-0.009717808
251	0x3adb26e5	0.0016719965
252	0xbe0db2cc	-0.13837737
253	0x3dc9d288	0.09854609
254	0xbdf10ce7	-0.11770039
255	0xbe20ec2c	-0.15715092

sequential/dense_1/MatMul f4 [2, 16]
0	0x3e42cf42	0.19024375
1	0xbd3be2d7	-0.04587063
2	0x3d0ccb81	0.034373764
3	0xbe6d0428	-0.23146117
4	0xbdf93876	-0.12168972
5	0xbbed6052	-0.0072441483
6	0xbe5463bb	-0.20741169
7	0x3dadb40b	0.08481606
8	0x3ea80756	0.32818097
9	0xbebce37a	-0.368923
10	0x3d7ce039	0.061737273
11	0x3ebda4e0	0.37039852
12	0x3e261275	0.16217978
13	0xbe53615c	-0.20642608
14	0xbf1505ad	-0.58211786
15	0xbe0084ad	-0.12550612
16	0x3e17dfa0	0.148314
17	0xbcd143e2	-0.025545064
18	0xbc414e98	-0.011798523
19	0xbe10f533	-0.14156036
20	0xbe14b088	-0.14520466
21	0xbd812a9b	-0.063069545
22	0xbe11a9b0	-0.14224887
23	0x3d0bb273	0.03410573
24	0x3e63857d	0.2221889
25	0xbea15082	-0.31506735
26	0x3de3f70a	0.11131103
27	0xbed5797a	-0.41694242
28	0x3dd658cb	0.10466155
29	0xbe907184	-0.28211606
30	0xbf04670b	-0.5171973
31	0xbdbe42c2	-0.09290077

sequential/conv2d/Conv2D f4 [8, 4, 3, 1]
0	0xbecf0a0d	-0.40437356
1	0x3eaf1482	0.34195334
2	0x3de08855	0.10963503
3	0xbdae74ff	-0.08518409
4	0x3cb2267d	0.021746868
5	0x3e099dbc	0.13439077
6	0x3e240d08	0.16020596
7	0x3e0ed358	0.13947809
8	0x3d18c5fd	0.03729819
9	0x3ebb6f1f	0.36608216
10	0xbecd8b5c	-0.40145385
11	0xbe5ead31	-0.21745755
12	0x3d75140d	0.059833575
13	0xbdefd3ef	-0.11710345
14	0xbe6a701e	-0.22894332
15	0x3dd6682a	0.104690865
16	0xbe161473	-0.14656238
17	0xbdccbfa2	-0.099974886
18	0x3e356b54	0.17716724
19	0x3e0f1cbe	0.13975808
20	0x3ddf537e	0.10904597
21	0x3cca2b76	0.024678927
22	0x3ea85042	0.32873732
23	0x3c836aad	0.016042078
24	0x3e0b302b	0.13592593
25	0x3e4c685f	0.1996169
26	0x3d7669c8	0.060159475
27	0xbdc84da6	-0.09780435
28	0x3e5e259e	0.21694037
29	0xbd1a11d2	-0.03761465
30	0xbdeab8fe	-0.11461066
31	0xbcaf6e56	-0.021414917
32	0xbd4c479c	-0.04987298
33	0xbdfeb6c6	-0.12437205
34	0xbcbec9ec	-0.023289643
35	0xbd498a06	-0.049203895
36	0xbe2052dd	-0.1565661
37	0xbdf7d737	-0.12101596
38	0xbe437d65	-0.19090803
39	0xbb713090	-0.0036802627
40	0x3d4b6f0d	0.049666453
41	0xbea5045c	-0.32229888
42	0x3e169a8f	0.14707397
43	0x3d581d06	0.052762054
44	0x3e5f8be5	0.2183071
45	0xbe0ab9a4	-0.13547379
46	0xbcf5806a	-0.02996846
47	0x3e9ff832	0.31244045
48	0xbedb0c7a	-0.42782956
49	0x3cc41dcb	0.023939988
50	0xbe09e128	-0.13464797
51	0xbe6394a3	-0.22224669
52	0xbdb69163	-0.08914449
53	0xbdc52d8c	-0.09627828
54	0xbdb3b3c3	-0.08774521
55	0xbd8f38aa	-0.0699323
56	0xbe2ba5e9	-0.16762508
57	0xbe9c6b20	-0.3055048
58	0x3e378753	0.17922716
59	0x3db9f2fd	0.090795495
60	0xbe650824	-0.22366387
61	0xbd79f521	-0.06102479
62	0x3d54b40d	0.051929522
63	0xbe22406f	-0.15844892
64	0x3de10a32	0.10988273
65	0x3df77c87	0.120842986
66	0x3caff63b	0.021479717
67	0xbde50c46	-0.111839816
68	0x3deaeaa9	0.11470539
69	0x3c9164b8	0.017748222
70	0xbe0ce32b	-0.13758533
71	0xbe410706	-0.18850335
72	0x3e323820	0.17404222
73	0xbe991ea3	-0.29906186
74	0xbe895edc	-0.26830184
75	0xbe8a47d9	-0.2700794
76	0xbdf37047	-0.118866496
77	0xbeeea86c	-0.4661287
78	0xbddb753e	-0.107157215
79	0x3e30a559	0.17250575
80	0xbed40dea	-0.41416866
81	0xbedf7975	-0.43647352
82	0xbe8b67aa	-0.27227527
83	0xbe076951	-0.13223769
84	0x3ccd5bae	0.02506813
85	0xbe75fbd5	-0.24021848
86	0x3d11e8ee	0.03562253
87	0xbd8afa92	-0.06786074
88	0xbe659e2d	-0.2242362
89	0x3b97794f	0.0046226154
90	0x3dc544b9	0.096322484
91	0x3cfe6b19	0.031056928
92	0xbdf906aa	-0.12159474
93	0xbdbbe76c	-0.091749996
94	0x3ecb9bba	0.39767247
95	0xbdfad8ee	-0.12248407

sequential/conv2d_1/Conv2D f4 [16, 4, 1, 8]
0	0x3dc09772	0.09403886
1	0x3d9d8ca5	0.076928414
2	0x3f0d2d86	0.5514759
3	0xbea3c622	-0.319871
4	0xbcaa7433	-0.020807361
5	0x3e04dbf3	0.12974529
6	0x3b2298a6	0.0024810224
7	0xbe69fa47	-0.2284938
8	0x3f1b71e4	0.6072066
9	0xbe371e9d	-0.17882772
10	0xbd2fafcc	-0.042892262
11	0xbe60e51a	-0.21962395
12	0xbdda7692	-0.10667147
13	0x3d1e3ea6	0.038633965
14	0xbd60bbb8	-0.054866523
15	0x3d288200	0.041139603
16	0xbd77ada0	-0.060468316
17	0xbedfedbb	-0.4373606
18	0xbdbed6f4	-0.09318343
19	0xbde1ae16	-0.110195324
20	0xbdf37aef	-0.11888682
21	0xbdefcc00	-0.11708832
22	0x3e2f702e	0.17132637
23	0xba9b8430	-0.0011864956
24	0xbeb1ccb3	-0.34726486
25	0xbecb839a	-0.39748842
26	0xbe8d37cb	-0.2758163
27	0xbe4710a7	-0.19439946
28	0xbdc94b74	-0.09828845
29	0xbe2b7a97	-0.16745983
30	0x3d96e1bc	0.07367274
31	0xbe9452dd	-0.2896947
32	0x3c9a3bbc	0.018827312
33	0x3d4ec7af	0.050483402
34	0x3de7669c	0.11298868
35	0xbf03fa0e	-0.5155343
36	0x3e16ab4e	0.14713785
37	0x3e208197	0.15674435
38	0xbed921e5	-0.42408672
39	0xbe90e8fe	-0.2830276
40	0x3e4c4252	0.19947174
41	0x3dccac81	0.0999384
42	0xbd9558dc	-0.07292339
43	0xbc3c9be0	-0.011511773
44	0x3d58a61a	0.05289278
45	0x3df18548	0.117929995
46	0xbca0f649	-0.019648688
47	0x3e7b087d	0.24514957
48	0xbe93ddda	-0.28880197
49	0x3d9b213e	0.075747
50	0xbdddb9b9	-0.108264394
51	0x3eaa5c9b	0.33273777
52	0xbe5ddab8	-0.21665466
53	0xbe9c6d49	-0.30552128
54	0xbe52dc22	-0.20591787
55	0x3dbc6610	0.091991544
56	0x3e338675	0.1753176
57	0xbd7ee7e2	-0.06223286
58	0xbe5c34ef	-0.21504568
59	0x3bb15e94	0.005412886
60	0xbeee94dc	-0.46597946
61	0x3c20890f	0.009798302
62	0xbe503880	-0.20334053
63	0xbea484ce	-0.32132572
64	0xbe0121a3	-0.12610488
65	0xbe65affa	-0.22430411
66	0xbd5e2c81	-0.05424166
67	0xbe381f10	-0.179806
68	0xbe3f1d7f	-0.18663596
69	0xbe54a8ae	-0.20767471
70	0xbe442afa	-0.1915702
71	0xbea29749	-0.31756046
72	0xbdc6b8d4	-0.09703222
73	0xbdebc77c	-0.11512658
74	0x3dc3bb75	0.09557239
75	0xbe967a76	-0.29390305
76	0xbe082680	-0.13295937
77	0x3d16982e	0.036766224
78	0xbe148581	-0.14504053
79	0xbefb4731	-0.49077752
80	0xbe2203fb	-0.15821831
81	0xbe8160cc	-0.25269163
82	0x3e8dac96	0.27670735
83	0xbe955927	-0.2916958
84	0x3d6ff290	0.058580935
85	0xbd21d928	-0.039513737
86	0x3e121d57	0.14269005
87	0xbeb5d516	-0.35514134
88	0xbdd6c795	-0.10487286
89	0xbe861955	-0.26191202
90	0x3e15750b	0.1459543
91	0x3e22af86	0.1588727
92	0x3e45df3f	0.19323443
93	0x3dc7837f	0.09741878
94	0x3e7a4e08	0.24443829
95	0x3c48230d	0.012215388
96	0x3db1e025	0.0868533
97	0x3cd56fee	0.026054349
98	0xbc412ff1	-0.011791215
99	0x3ddb5356	0.107092544
100	0x3e8608a5	0.2617847
101	0x3d61a35f	0.055087443
102	0x3b46b2f1	0.003031906
103	0xbdfc97ad	-0.12333617
104	0xbe25a669	-0.16176762
105	0xbd848e26	-0.06472425
106	0xbdee0242	-0.116215244
107	0xbe5df894	-0.21676856
108	0x3de23718	0.110456645
109	0xbe8ae016	-0.2712409
110	0x3c2401c0	0.010010183
111	0xbeb6cd22	-0.3570338
112	0xbde03ff7	-0.109497
113	0xbceebadb	-0.029141834
114	0x3dff5fa5	0.124694146
115	0xbde8c5cb	-0.11365851
116	0xbe04fbf7	-0.12986742
117	0x3b1c121f	0.0023814512
118	0xbd711409	-0.058856998
119	0xbec4fc4c	-0.38473737
120	0xbdb0320a	-0.08603294
121	0x3df04b90	0.117331624
122	0x3d040992	0.03223569
123	0xbde0e70b	-0.10981568
124	0x3e02fd38	0.12791908
125	0xbe45ece0	-0.19328642
126	0xbc9e81c3	-0.019348985
127	0xbed0df85	-0.40795532
128	0xbe63c754	-0.22244006
129	0xbe1f86cc	-0.15578765
130	0xbe1abc23	-0.15110831
131	0xbc9058d4	-0.017620482
132	0xbe02e7f7	-0.127838
133	0x3df8439c	0.121222705
134	0x3e43eaeb	0.19132583
135	0xbcea0d26	-0.028570723
136	0x3e53fa7e	0.20701024
137	0xbe01922e	-0.1265342
138	0xbdc34138	-0.09533924
139	0x3e1e6213	0.154671
140	0xbd9716d4	-0.07377401
141	0xbdbe87a2	-0.09303214
142	0x3eb1fc1d	0.3476266
143	0x3d5feb11	0.054667536
144	0x3ddd22da	0.10797663
145	0xbe612261	-0.21985771
146	0xbe30877c	-0.17239183
147	0x3c3d2245	0.011543815
148	0xbdd8640f	-0.1056596
149	0x3d508f17	0.05091771
150	0xbdbe7504	-0.09299663
151	0xbe35bb2d	-0.17747183
152	0x3e76ef85	0.24114807
153	0xbe4bf58a	-0.19917884
154	0xbe3b4ed5	-0.18291791
155	0x3e3228b9	0.17398347
156	0xbcc1795c	-0.023617439
157	0x3d9ad699	0.075604625
158	0xbcab76e4	-0.020930715
159	0xbe452f4b	-0.19256322
160	0x3f100702	0.56260693
161	0xbda0c22b	-0.078495346
162	0x3f02e4d4	0.51130414
163	0xbe875a67	-0.2643616
164	0x3d604d71	0.054761354
165	0x3ef3615e	0.47535223
166	0xbd84d245	-0.06485418
167	0x3cf0ed34	0.029409982
168	0xbde6fc9b	-0.112786494
169	0xbeaec240	-0.34132576
170	0xbd2a9604	-0.041646972
171	0xbe949b1b	-0.29024586
172	0xbe16d379	-0.14729108
173	0xbddfb1fe	-0.10922621
174	0xbe3e4c09	-0.18583693
175	0x3e46a50b	0.19398896
176	0xbd9e0fa1	-0.07717825
177	0xbe677f62	-0.22607186
178	0xbe690153	-0.22754411
179	0x3c994476	0.018709403
180	0xbe5f3b9f	-0.21800087
181	0xbe301ee5	-0.17199285
182	0xbcd630d4	-0.02614633
183	0x3e2758cc	0.16342467
184	0xbe9e7a66	-0.30952758
185	0xbe86865f	-0.26274392
186	0xbe9fb764	-0.31194603
187	0x3dd527d4	0.10407987
188	0xbd0b08f9	-0.033944104
189	0xbe806d8b	-0.25083575
190	0xbba11447	-0.0049157473
191	0x3dd1cb5b	0.10243865
192	0x3e3eddef	0.18639348
193	0x3e277e5e	0.16356799
194	0x3dab9ed4	0.083799034
195	0xbec42797	-0.38311455
196	0xbf237ec5	-0.6386531
197	0xbe4c2e01	-0.19939424
198	0x3ed27069	0.41101387
199	0xbec9c281	-0.39406207
200	0xbcdc22b7	-0.026872022
201	0xbe0eafa9	-0.13934197
202	0xbd889f9a	-0.066710666
203	0xbf08e3f2	-0.53472817
204	0xbf900287	-1.1250771
205	0xbe3a3b27	-0.18186627
206	0xbc4817c9	-0.012212702
207	0xbea40f91	-0.32043126
208	0x3d4c1ead	0.049833942
209	0x3e1a55d1	0.15071799
210	0x3cea4b98	0.028600499
211	0xbe552564	-0.20815045
212	0xbf942060	-1.157238
213	0xbdac0d23	-0.08400943
214	0xbdbf1b60	-0.09331393
215	0xbe656586	-0.2240201
216	0xbca93a93	-0.020657813
217	0x3e7ebd13	0.24876814
218	0xbc24c8d0	-0.010057643
219	0xbd8ced8f	-0.06881248
220	0xbee71aba	-0.45137578
221	0xbca7d25f	-0.020486055
222	0xbf09a4fe	-0.53767383
223	0xbdf002dd	-0.11719296
224	0xbea23c80	-0.31686783
225	0xbdd4ad0c	-0.103845686
226	0xbe8e44ec	-0.27786958
227	0x3ea773b3	0.3270546
228	0xbe8555ca	-0.26042014
229	0xbe4f9aa2	-0.20273831
230	0xbe6d3798	-0.23165739
231	0x3e05f637	0.13082205
232	0xbdf749f0	-0.12074649
233	0x3ddff3a9	0.10935146
234	0xbd960590	-0.0732528
235	0x3e63fe84	0.22265059
236	0xbca7cea9	-0.020484285
237	0xbd8569d2	-0.06514324
238	0xbe35e109	-0.17761625
239	0x3e676e15	0.22600587
240	0x3ea0c1cc	0.31397855
241	0xbe3e2a26	-0.18570766
242	0x3e611b8e	0.21983168
243	0xbe881b8b	-0.26583514
244	0x3e50a2f7	0.20374666
245	0x3e747813	0.2387393
246	0xbdc31fc3	-0.095275424
247	0x3daef58e	0.085429296
248	0xbc058a34	-0.008150626
249	0xbe017b8c	-0.12644786
250	0xbdb0ef34	-0.086393744
251	0xbe877a04	-0.26460278
252	0x3dfdf3b8	0.12400001
253	0xbdf14dd5	-0.117824234
254	0xbe1fd880	-0.15609932
255	0xbd721749	-0.059104238

std.constant f4 [8]
0	0xc00a6e7f	-2.1629941
1	0xbf3f06ac	-0.74619555
2	0xc0432d42	-3.0496373
3	0xbfaf3f52	-1.3691199
4	0xbedb991c	-0.4289025
5	0xc01c40f0	-2.4414635
6	0x3dbb241f	0.09137749
7	0xbf7308b3	-0.9493515

std.constant1 f4 [16]
0	0xbecb5f22	-0.39721018
1	0xbe8bb37a	-0.27285367
2	0x3e6110c6	0.21979055
3	0x3f23fcda	0.64057696
4	0x3e397215	0.18109925
5	0xbec5546d	-0.38540974
6	0x3f491842	0.7855264
7	0xbf08e3a4	-0.5347235
8	0x3ec5954c	0.38590467
9	0xbe4fc660	-0.20290518
10	0xbe1f0724	-0.15530068
11	0xbd9599d0	-0.07304728
12	0x3b9cf251	0.0047896286
13	0xbe956c54	-0.2918421
14	0xbf3316d4	-0.6995671
15	0x3e9ad902	0.3024369
