Assignment4/GesturesAccel_incomplete/app/src/main/assets/kaiTan_quantized.tflite (tflite, 8728 bytes, 8 tensors)

sequential/dense/BiasAdd/ReadVariableOp f4 [16]
000000 37 9f 6a be 4b ce fd bd 1c c7 d9 be fc 68 f1 bd
       -0.22912298 -0.12392863 -0.4253472 -0.11787602
000010 54 ab ec be 45 d7 b3 be 8a e0 dc 3f db 1d e3 be
       -0.46224463 -0.35125175 1.7256024 -0.44358715
000020 16 6a 7a be 65 43 56 3b e3 81 09 40 d3 a0 0a be
       -0.24454531 0.003269398 2.1485527 -0.13537912
000030 aa f4 b0 be 25 a8 e3 be 7d 9b 44 3e ee 11 97 3e
       -0.34561664 -0.44464222 0.19199939 0.29505867

sequential/dense_1/BiasAdd/ReadVariableOp f4 [2]
000000 61 86 6a bf 4b 86 6a 3f
       -0.91611296 0.91611165

sequential/dense/MatMul i1 [16, 224] scale=0.008584511 zero_point=0
000000 01 00 ce 05 04 08 05 01 da eb e6 ef ee cd f1 c2
       0.008584511 0.0 -0.42922553 0.042922553 0.034338042 0.068676084 0.042922553 0.008584511 -0.3262114 -0.18027472 -0.22319728 -0.14593668 -0.1545212 -0.43781003 -0.12876765 -0.5322397
000010 ed f7 02 f3 ed 13 e8 f9 e3 fe 07 ec d9 0b 05 d0
       -0.1631057 -0.0772606 0.017169021 -0.11159864 -0.1631057 0.1631057 -0.20602825 -0.060091574 -0.24895081 -0.017169021 0.060091574 -0.17169021 -0.33479592 0.09442961 0.042922553 -0.4120565
000020 fb fa f9 ea 04 fd ee 04 e5 f4 fb ee fd fd fc eb
       -0.042922553 -0.051507063 -0.060091574 -0.18885922 0.034338042 -0.025753532 -0.1545212 0.034338042 -0.23178178 -0.10301413 -0.042922553 -0.1545212 -0.025753532 -0.025753532 -0.034338042 -0.18027472
000030 25 ee 02 f0 02 2b ef f5 03 27 10 f9 f2 0a 06 ec
       0.3176269 -0.1545212 0.017169021 -0.13735217 0.017169021 0.36913395 -0.14593668 -0.09442961 0.025753532 0.33479592 0.13735217 -0.060091574 -0.12018315 0.085845105 0.051507063 -0.17169021
000040 17 00 fa f0 01 1c d6 03 13 07 13 f8 ec 14 2a e8
       0.19744374 0.0 -0.051507063 -0.13735217 0.008584511 0.2403663 -0.36054945 0.025753532 0.1631057 0.060091574 0.1631057 -0.068676084 -0.17169021 0.17169021 0.36054945 -0.20602825
000050 1e f6 0e ea f3 1a ce ff fc fc 10 fa 12 1b 0d ff
       0.2575353 -0.085845105 0.12018315 -0.18885922 -0.11159864 0.22319728 -0.42922553 -0.008584511 -0.034338042 -0.034338042 0.13735217 -0.051507063 0.1545212 0.23178178 0.11159864 -0.008584511
000060 3c 2e 11 fb f7 14 ee 0a f7 0c 11 04 04 17 15 04
       0.5150706 0.39488748 0.14593668 -0.042922553 -0.0772606 0.17169021 -0.1545212 0.085845105 -0.0772606 0.10301413 0.14593668 0.034338042 0.034338042 0.19744374 0.18027472 0.034338042
000070 33 03 08 fc fe 15 d0 fc fa f9 fd 0c 02 2a 02 f4
       0.43781003 0.025753532 0.068676084 -0.034338042 -0.017169021 0.18027472 -0.4120565 -0.034338042 -0.051507063 -0.060091574 -0.025753532 0.10301413 0.017169021 0.36054945 0.017169021 -0.10301413
000080 20 02 f6 f1 eb 18 ec ff 04 11 21 fe e8 00 01 02
       0.27470434 0.017169021 -0.085845105 -0.12876765 -0.18027472 0.20602825 -0.17169021 -0.008584511 0.034338042 0.14593668 0.28328884 -0.017169021 -0.20602825 0.0 0.008584511 0.017169021
000090 24 fd f3 f4 11 25 e3 03 0e 19 2a fc 03 fc 14 fa
       0.3090424 -0.025753532 -0.11159864 -0.10301413 0.14593668 0.3176269 -0.24895081 0.025753532 0.12018315 0.21461277 0.36054945 -0.034338042 0.025753532 -0.034338042 0.17169021 -0.051507063
0000a0 12 f6 f4 fb 0f 1e f9 f1 00 08 f5 03 fe f1 0d f2
       0.1545212 -0.085845105 -0.10301413 -0.042922553 0.12876765 0.2575353 -0.060091574 -0.12876765 0.0 0.068676084 -0.09442961 0.025753532 -0.017169021 -0.12876765 0.11159864 -0.12018315
0000b0 17 01 02 fc 0e 24 d8 f5 f1 ee f7 de f4 fd f2 f5
       0.19744374 0.008584511 0.017169021 -0.034338042 0.12018315 0.3090424 -0.34338042 -0.09442961 -0.12876765 -0.1545212 -0.0772606 -0.29187337 -0.10301413 -0.025753532 -0.12018315 -0.09442961
0000c0 e7 f8 e7 1b fd dc f5 02 f0 bd ea da c7 e0 e8 e7
       -0.21461277 -0.068676084 -0.21461277 0.23178178 -0.025753532 -0.3090424 -0.09442961 0.017169021 -0.13735217 -0.57516223 -0.18885922 -0.3262114 -0.4893171 -0.27470434 -0.20602825 -0.21461277
0000d0 eb 07 fa 05 f6 f1 e5 ff ec ed f9 e5 fa cc eb f5
       -0.18027472 0.060091574 -0.051507063 0.042922553 -0.085845105 -0.12876765 -0.23178178 -0.008584511 -0.17169021 -0.1631057 -0.060091574 -0.23178178 -0.051507063 -0.44639456 -0.18027472 -0.09442961
0000e0 03 fa 16 fe f9 ee 0b fb f1 02 05 f1 ff f8 f0 f9
       0.025753532 -0.051507063 0.18885922 -0.017169021 -0.060091574 -0.1545212 0.09442961 -0.042922553 -0.12876765 0.017169021 0.042922553 -0.12876765 -0.008584511 -0.068676084 -0.13735217 -0.060091574
0000f0 01 fd 02 f6 03 0f f8 e5 00 01 ff 00 f0 0b f2 ee
       0.008584511 -0.025753532 0.017169021 -0.085845105 0.025753532 0.12876765 -0.068676084 -0.23178178 0.0 0.008584511 -0.008584511 0.0 -0.13735217 0.09442961 -0.12018315 -0.1545212

sequential/dense_1/MatMul f4 [2, 16]
000000 42 cf 42 3e d7 e2 3b bd 81 cb 0c 3d 28 04 6d be
       0.19024375 -0.04587063 0.034373764 -0.23146117
000010 76 38 f9 bd 52 60 ed bb bb 63 54 be 0b b4 ad 3d
       -0.12168972 -0.0072441483 -0.20741169 0.08481606
000020 56 07 a8 3e 7a e3 bc be 39 e0 7c 3d e0 a4 bd 3e
       0.32818097 -0.368923 0.061737273 0.37039852
000030 75 12 26 3e 5c 61 53 be ad 05 15 bf ad 84 00 be
       0.16217978 -0.20642608 -0.58211786 -0.12550612
000040 a0 df 17 3e e2 43 d1 bc 98 4e 41 bc 33 f5 10 be
       0.148314 -0.025545064 -0.011798523 -0.14156036
000050 88 b0 14 be 9b 2a 81 bd b0 a9 11 be 73 b2 0b 3d
       -0.14520466 -0.063069545 -0.14224887 0.03410573
000060 7d 85 63 3e 82 50 a1 be 0a f7 e3 3d 7a 79 d5 be
       0.2221889 -0.31506735 0.11131103 -0.41694242
000070 cb 58 d6 3d 84 71 90 be 0b 67 04 bf c2 42 be bd
       0.10466155 -0.28211606 -0.5171973 -0.09290077

sequential/conv2d/Conv2D f4 [8, 4, 3, 1]
000000 0d 0a cf be 82 14 af 3e 55 88 e0 3d ff 74 ae bd
       -0.40437356 0.34195334 0.10963503 -0.08518409
000010 7d 26 b2 3c bc 9d 09 3e 08 0d 24 3e 58 d3 0e 3e
       0.021746868 0.13439077 0.16020596 0.13947809
000020 fd c5 18 3d 1f 6f bb 3e 5c 8b cd be 31 ad 5e be
       0.03729819 0.36608216 -0.40145385 -0.21745755
000030 0d 14 75 3d ef d3 ef bd 1e 70 6a be 2a 68 d6 3d
       0.059833575 -0.11710345 -0.22894332 0.104690865
000040 73 14 16 be a2 bf cc bd 54 6b 35 3e be 1c 0f 3e
       -0.14656238 -0.099974886 0.17716724 0.13975808
000050 7e 53 df 3d 76 2b ca 3c 42 50 a8 3e ad 6a 83 3c
       0.10904597 0.024678927 0.32873732 0.016042078
000060 2b 30 0b 3e 5f 68 4c 3e c8 69 76 3d a6 4d c8 bd
       0.13592593 0.1996169 0.060159475 -0.09780435
000070 9e 25 5e 3e d2 11 1a bd fe b8 ea bd 56 6e af bc
       0.21694037 -0.03761465 -0.11461066 -0.021414917
000080 9c 47 4c bd c6 b6 fe bd ec c9 be bc 06 8a 49 bd
       -0.04987298 -0.12437205 -0.023289643 -0.049203895
000090 dd 52 20 be 37 d7 f7 bd 65 7d 43 be 90 30 71 bb
       -0.1565661 -0.12101596 -0.19090803 -0.0036802627
0000a0 0d 6f 4b 3d 5c 04 a5 be 8f 9a 16 3e 06 1d 58 3d
       0.049666453 -0.32229888 0.14707397 0.052762054
0000b0 e5 8b 5f 3e a4 b9 0a be 6a 80 f5 bc 32 f8 9f 3e
       0.2183071 -0.13547379 -0.02996846 0.31244045
0000c0 7a 0c db be cb 1d c4 3c 28 e1 09 be a3 94 63 be
       -0.42782956 0.023939988 -0.13464797 -0.22224669
0000d0 63 91 b6 bd 8c 2d c5 bd c3 b3 b3 bd aa 38 8f bd
       -0.08914449 -0.09627828 -0.08774521 -0.0699323
0000e0 e9 a5 2b be 20 6b 9c be 53 87 37 3e fd f2 b9 3d
       -0.16762508 -0.3055048 0.17922716 0.090795495
0000f0 24 08 65 be 21 f5 79 bd 0d b4 54 3d 6f 40 22 be
       -0.22366387 -0.06102479 0.051929522 -0.15844892
000100 32 0a e1 3d 87 7c f7 3d 3b f6 af 3c 46 0c e5 bd
       0.10988273 0.120842986 0.021479717 -0.111839816
000110 a9 ea ea 3d b8 64 91 3c 2b e3 0c be 06 07 41 be
       0.11470539 0.017748222 -0.13758533 -0.18850335
000120 20 38 32 3e a3 1e 99 be dc 5e 89 be d9 47 8a be
       0.17404222 -0.29906186 -0.26830184 -0.2700794
000130 47 70 f3 bd 6c a8 ee be 3e 75 db bd 59 a5 30 3e
       -0.118866496 -0.4661287 -0.107157215 0.17250575
000140 ea 0d d4 be 75 79 df be aa 67 8b be 51 69 07 be
       -0.41416866 -0.43647352 -0.27227527 -0.13223769
000150 ae 5b cd 3c d5 fb 75 be ee e8 11 3d 92 fa 8a bd
       0.02506813 -0.24021848 0.03562253 -0.06786074
000160 2d 9e 65 be 4f 79 97 3b b9 44 c5 3d 19 6b fe 3c
       -0.2242362 0.0046226154 0.096322484 0.031056928
000170 aa 06 f9 bd 6c e7 bb bd ba 9b cb 3e ee d8 fa bd
       -0.12159474 -0.091749996 0.39767247 -0.12248407

sequential/conv2d_1/Conv2D f4 [16, 4, 1, 8]
000000 72 97 c0 3d a5 8c 9d 3d 86 2d 0d 3f 22 c6 a3 be
       0.09403886 0.076928414 0.5514759 -0.319871
000010 33 74 aa bc f3 db 04 3e a6 98 22 3b 47 fa 69 be
       -0.020807361 0.12974529 0.0024810224 -0.2284938
000020 e4 71 1b 3f 9d 1e 37 be cc af 2f bd 1a e5 60 be
       0.6072066 -0.17882772 -0.042892262 -0.21962395
000030 92 76 da bd a6 3e 1e 3d b8 bb 60 bd 00 82 28 3d
       -0.10667147 0.038633965 -0.054866523 0.041139603
000040 a0 ad 77 bd bb ed df be f4 d6 be bd 16 ae e1 bd
       -0.060468316 -0.4373606 -0.09318343 -0.110195324
000050 ef 7a f3 bd 00 cc ef bd 2e 70 2f 3e 30 84 9b ba
       -0.11888682 -0.11708832 0.17132637 -0.0011864956
000060 b3 cc b1 be 9a 83 cb be cb 37 8d be a7 10 47 be
       -0.34726486 -0.39748842 -0.2758163 -0.19439946
000070 74 4b c9 bd 97 7a 2b be bc e1 96 3d dd 52 94 be
       -0.09828845 -0.16745983 0.07367274 -0.2896947
000080 bc 3b 9a 3c af c7 4e 3d 9c 66 e7 3d 0e fa 03 bf
       0.018827312 0.050483402 0.11298868 -0.5155343
000090 4e ab 16 3e 97 81 20 3e e5 21 d9 be fe e8 90 be
       0.14713785 0.15674435 -0.42408672 -0.2830276
0000a0 52 42 4c 3e 81 ac cc 3d dc 58 95 bd e0 9b 3c bc
       0.19947174 0.0999384 -0.07292339 -0.011511773
0000b0 1a a6 58 3d 48 85 f1 3d 49 f6 a0 bc 7d 08 7b 3e
       0.05289278 0.117929995 -0.019648688 0.24514957
0000c0 da dd 93 be 3e 21 9b 3d b9 b9 dd bd 9b 5c aa 3e
       -0.28880197 0.075747 -0.108264394 0.33273777
0000d0 b8 da 5d be 49 6d 9c be 22 dc 52 be 10 66 bc 3d
       -0.21665466 -0.30552128 -0.20591787 0.091991544
0000e0 75 86 33 3e e2 e7 7e bd ef 34 5c be 94 5e b1 3b
       0.1753176 -0.06223286 -0.21504568 0.005412886
0000f0 dc 94 ee be 0f 89 20 3c 80 38 50 be ce 84 a4 be
       -0.46597946 0.009798302 -0.20334053 -0.32132572
000100 a3 21 01 be fa af 65 be 81 2c 5e bd 10 1f 38 be
       -0.12610488 -0.22430411 -0.05424166 -0.179806
000110 7f 1d 3f be ae a8 54 be fa 2a 44 be 49 97 a2 be
       -0.18663596 -0.20767471 -0.1915702 -0.31756046
000120 d4 b8 c6 bd 7c c7 eb bd 75 bb c3 3d 76 7a 96 be
       -0.09703222 -0.11512658 0.09557239 -0.29390305
000130 80 26 08 be 2e 98 16 3d 81 85 14 be 31 47 fb be
       -0.13295937 0.036766224 -0.14504053 -0.49077752
000140 fb 03 22 be cc 60 81 be 96 ac 8d 3e 27 59 95 be
       -0.15821831 -0.25269163 0.27670735 -0.2916958
000150 90 f2 6f 3d 28 d9 21 bd 57 1d 12 3e 16 d5 b5 be
       0.058580935 -0.039513737 0.14269005 -0.35514134
000160 95 c7 d6 bd 55 19 86 be 0b 75 15 3e 86 af 22 3e
       -0.10487286 -0.26191202 0.1459543 0.1588727
000170 3f df 45 3e 7f 83 c7 3d 08 4e 7a 3e 0d 23 48 3c
       0.19323443 0.09741878 0.24443829 0.012215388
000180 25 e0 b1 3d ee 6f d5 3c f1 2f 41 bc 56 53 db 3d
       0.0868533 0.026054349 -0.011791215 0.107092544
000190 a5 08 86 3e 5f a3 61 3d f1 b2 46 3b ad 97 fc bd
       0.2617847 0.055087443 0.003031906 -0.12333617
0001a0 69 a6 25 be 26 8e 84 bd 42 02 ee bd 94 f8 5d be
       -0.16176762 -0.06472425 -0.116215244 -0.21676856
0001b0 18 37 e2 3d 16 e0 8a be c0 01 24 3c 22 cd b6 be
       0.110456645 -0.2712409 0.010010183 -0.3570338
0001c0 f7 3f e0 bd db ba ee bc a5 5f ff 3d cb c5 e8 bd
       -0.109497 -0.029141834 0.124694146 -0.11365851
0001d0 f7 fb 04 be 1f 12 1c 3b 09 14 71 bd 4c fc c4 be
       -0.12986742 0.0023814512 -0.058856998 -0.38473737
0001e0 0a 32 b0 bd 90 4b f0 3d 92 09 04 3d 0b e7 e0 bd
       -0.08603294 0.117331624 0.03223569 -0.10981568
0001f0 38 fd 02 3e e0 ec 45 be c3 81 9e bc 85 df d0 be
       0.12791908 -0.19328642 -0.019348985 -0.40795532
000200 54 c7 63 be cc 86 1f be 23 bc 1a be d4 58 90 bc
       -0.22244006 -0.15578765 -0.15110831 -0.017620482
000210 f7 e7 02 be 9c 43 f8 3d eb ea 43 3e 26 0d ea bc
       -0.127838 0.121222705 0.19132583 -0.028570723
000220 7e fa 53 3e 2e 92 01 be 38 41 c3 bd 13 62 1e 3e
       0.20701024 -0.1265342 -0.09533924 0.154671
000230 d4 16 97 bd a2 87 be bd 1d fc b1 3e 11 eb 5f 3d
       -0.07377401 -0.09303214 0.3476266 0.054667536
000240 da 22 dd 3d 61 22 61 be 7c 87 30 be 45 22 3d 3c
       0.10797663 -0.21985771 -0.17239183 0.011543815
000250 0f 64 d8 bd 17 8f 50 3d 04 75 be bd 2d bb 35 be
       -0.1056596 0.05091771 -0.09299663 -0.17747183
000260 85 ef 76 3e 8a f5 4b be d5 4e 3b be b9 28 32 3e
       0.24114807 -0.19917884 -0.18291791 0.17398347
000270 5c 79 c1 bc 99 d6 9a 3d e4 76 ab bc 4b 2f 45 be
       -0.023617439 0.075604625 -0.020930715 -0.19256322
000280 02 07 10 3f 2b c2 a0 bd d4 e4 02 3f 67 5a 87 be
       0.56260693 -0.078495346 0.51130414 -0.2643616
000290 71 4d 60 3d 5e 61 f3 3e 45 d2 84 bd 34 ed f0 3c
       0.054761354 0.47535223 -0.06485418 0.029409982
0002a0 9b fc e6 bd 40 c2 ae be 04 96 2a bd 1b 9b 94 be
       -0.112786494 -0.34132576 -0.041646972 -0.29024586
0002b0 79 d3 16 be fe b1 df bd 09 4c 3e be 0b a5 46 3e
       -0.14729108 -0.10922621 -0.18583693 0.19398896
0002c0 a1 0f 9e bd 62 7f 67 be 53 01 69 be 76 44 99 3c
       -0.07717825 -0.22607186 -0.22754411 0.018709403
0002d0 9f 3b 5f be e5 1e 30 be d4 30 d6 bc cc 58 27 3e
       -0.21800087 -0.17199285 -0.02614633 0.16342467
0002e0 66 7a 9e be 5f 86 86 be 64 b7 9f be d4 27 d5 3d
       -0.30952758 -0.26274392 -0.31194603 0.10407987
0002f0 f9 08 0b bd 8b 6d 80 be 47 14 a1 bb 5b cb d1 3d
       -0.033944104 -0.25083575 -0.0049157473 0.10243865
000300 ef dd 3e 3e 5e 7e 27 3e d4 9e ab 3d 97 27 c4 be
       0.18639348 0.16356799 0.083799034 -0.38311455
000310 c5 7e 23 bf 01 2e 4c be 69 70 d2 3e 81 c2 c9 be
       -0.6386531 -0.19939424 0.41101387 -0.39406207
000320 b7 22 dc bc a9 af 0e be 9a 9f 88 bd f2 e3 08 bf
       -0.026872022 -0.13934197 -0.066710666 -0.53472817
000330 87 02 90 bf 27 3b 3a be c9 17 48 bc 91 0f a4 be
       -1.1250771 -0.18186627 -0.012212702 -0.32043126
000340 ad 1e 4c 3d d1 55 1a 3e 98 4b ea 3c 64 25 55 be
       0.049833942 0.15071799 0.028600499 -0.20815045
000350 60 20 94 bf 23 0d ac bd 60 1b bf bd 86 65 65 be
       -1.157238 -0.08400943 -0.09331393 -0.2240201
000360 93 3a a9 bc 13 bd 7e 3e d0 c8 24 bc 8f ed 8c bd
       -0.020657813 0.24876814 -0.010057643 -0.06881248
000370 ba 1a e7 be 5f d2 a7 bc fe a4 09 bf dd 02 f0 bd
       -0.45137578 -0.020486055 -0.53767383 -0.11719296
000380 80 3c a2 be 0c ad d4 bd ec 44 8e be b3 73 a7 3e
       -0.31686783 -0.103845686 -0.27786958 0.3270546
000390 ca 55 85 be a2 9a 4f be 98 37 6d be 37 f6 05 3e
       -0.26042014 -0.20273831 -0.23165739 0.13082205
0003a0 f0 49 f7 bd a9 f3 df 3d 90 05 96 bd 84 fe 63 3e
       -0.12074649 0.10935146 -0.0732528 0.22265059
0003b0 a9 ce a7 bc d2 69 85 bd 09 e1 35 be 15 6e 67 3e
       -0.020484285 -0.06514324 -0.17761625 0.22600587
0003c0 cc c1 a0 3e 26 2a 3e be 8e 1b 61 3e 8b 1b 88 be
       0.31397855 -0.18570766 0.21983168 -0.26583514
0003d0 f7 a2 50 3e 13 78 74 3e c3 1f c3 bd 8e f5 ae 3d
       0.20374666 0.2387393 -0.095275424 0.085429296
0003e0 34 8a 05 bc 8c 7b 01 be 34 ef b0 bd 04 7a 87 be
       -0.008150626 -0.12644786 -0.086393744 -0.26460278
0003f0 b8 f3 fd 3d d5 4d f1 bd 80 d8 1f be 49 17 72 bd
       0.12400001 -0.117824234 -0.15609932 -0.059104238

std.constant f4 [8]
000000 7f 6e 0a c0 ac 06 3f bf 42 2d 43 c0 52 3f af bf
       -2.1629941 -0.74619555 -3.0496373 -1.3691199
000010 1c 99 db be f0 40 1c c0 1f 24 bb 3d b3 08 73 bf
       -0.4289025 -2.4414635 0.09137749 -0.9493515

std.constant1 f4 [16]
000000 22 5f cb be 7a b3 8b be c6 10 61 3e da fc 23 3f
       -0.39721018 -0.27285367 0.21979055 0.64057696
000010 15 72 39 3e 6d 54 c5 be 42 18 49 3f a4 e3 08 bf
       0.18109925 -0.38540974 0.7855264 -0.5347235
000020 4c 95 c5 3e 60 c6 4f be 24 07 1f be d0 99 95 bd
       0.38590467 -0.20290518 -0.15530068 -0.07304728
000030 51 f2 9c 3b 54 6c 95 be d4 16 33 bf 02 d9 9a 3e
       0.0047896286 -0.2918421 -0.6995671 0.3024369
