Assignment4/GesturesAccel_incomplete/app/src/main/assets/model.tflite (tflite, 19616 bytes, 8 tensors)

sequential/conv2d/Conv2D/ReadVariableOp f4 [1, 4, 3, 8]
000000 57 38 94 bd 96 1d 99 3e d6 6c af bd 9b f7 46 3d
       -0.072373085 0.29905385 -0.08565681 0.04857598
000010 6f 9c c9 bd 3e bb d9 3d f6 e5 37 bd a1 30 20 bc
       -0.098442905 0.10631417 -0.044897042 -0.009777219
000020 51 28 a1 be 27 75 85 bd f7 f3 2a be 08 59 90 3e
       -0.3147607 -0.06516486 -0.16694628 0.28192925
000030 85 52 b6 bd 1d 5e dc bd 12 26 4c be dd e3 ec 3b
       -0.08902458 -0.10760138 -0.19936398 0.007229312
000040 4c 43 2c 3e b7 ad ff be 53 db 31 be d1 2d 20 3c
       0.16822547 -0.4993722 -0.17368822 0.0097765485
000050 be b7 36 3e bf c7 15 3e d2 c5 fa bd 24 1e 66 be
       0.1784353 0.14626978 -0.122447625 -0.22472435
000060 21 6d 61 3d 9c b0 b0 3d 67 c0 92 3e d7 93 36 3e
       0.055035714 0.086274356 0.28662416 0.17829834
000070 7e f7 b2 bd 77 1b 21 be cc e1 ec 3c e2 ed 95 bc
       -0.08738612 -0.15733133 0.028916262 -0.018301908
000080 96 23 54 be 42 d8 07 be 6f 51 72 3d ef 19 86 bd
       -0.207167 -0.1326609 0.059159692 -0.06547915
000090 85 e7 f6 3c a8 9d ee 3d 96 ec 13 be 32 0d 9e bd
       0.030139694 0.11651164 -0.14445719 -0.077173606
0000a0 69 01 94 3d 66 eb a8 bd 22 cc 46 be f1 b9 d9 bc
       0.072268315 -0.08248024 -0.19413808 -0.026577922
0000b0 ac a5 37 3e 94 bd 2e 3b d4 ac 44 3c 36 dd 4c 3d
       0.17934293 0.002666329 0.012004096 0.05001565
0000c0 6d a8 8c bd de 58 bf bd 00 ff 4d 3a 13 6e c0 3d
       -0.06868062 -0.09343122 0.00078581274 0.09395995
0000d0 ac 5c 7e 3d bf 82 3d be aa fe f1 3d 74 33 06 3d
       0.062100098 -0.18506907 0.118161514 0.032763913
0000e0 07 9a b1 3d 63 2c 2d 3e 7b 8a 28 be 6d 49 29 be
       0.086719565 0.16911463 -0.16459076 -0.16531916
0000f0 f3 6d a2 bd 92 63 da bd f6 9d c8 bd c5 3e a5 3c
       -0.079311274 -0.10663523 -0.09795754 0.020171532
000100 b7 f2 9d be 92 94 bc 3d fb e3 1b be 8f 48 90 bc
       -0.3084924 0.09208025 -0.15223686 -0.017612724
000110 64 2d 9d bd 73 dc 79 be 01 e1 eb bd f6 97 dd 3d
       -0.07674673 -0.24400501 -0.115175255 0.1082
000120 00 4e 25 bd b2 3d 1a be 84 2e 59 be 57 ce aa 3d
       -0.04035759 -0.15062597 -0.2120915 0.083401375
000130 e2 f7 07 be 5a 5f b1 be d1 de 08 3e 76 2a ec 3a
       -0.13278154 -0.3464306 0.13366248 0.0018018025
000140 b2 92 b9 3e b2 b7 c4 bd 17 70 14 3b bb 0b 02 be
       0.36244732 -0.096053496 0.0022649819 -0.12699787
000150 22 88 64 bc 4e 32 03 bd 04 04 3f be 6f 16 d8 bc
       -0.013948472 -0.032030396 -0.18653876 -0.026377885
000160 49 ad a3 be fc d9 d5 be 1d 41 44 be e3 3e c6 bd
       -0.31968144 -0.4176787 -0.19165464 -0.096799634
000170 77 d1 98 be 40 22 f6 bd 7c 3d 31 3d 49 4e 4d 3e
       -0.2984731 -0.120182514 0.043271527 0.20049395

sequential/conv2d/Conv2D_bias f4 [8]
000000 ee 05 7b bf 8f a7 c3 3c 64 c2 63 be 5c 4c 75 bf
       -0.98055923 0.02388361 -0.22242123 -0.9581964
000010 bf 18 18 c0 91 9f d9 bf 18 e0 cf bf 06 47 16 c0
       -2.3765104 -1.7001821 -1.6240263 -2.348085

sequential/conv2d_1/Conv2D/ReadVariableOp f4 [16, 4, 1, 8]
000000 b5 5c dc be 0f 64 bf be 5d ef b9 be f9 28 ae be
       -0.4303948 -0.37381026 -0.36315432 -0.34015635
000010 92 b1 eb be 2c 0f 15 bf 1f e5 f0 be 3d e0 93 bd
       -0.46033913 -0.58226275 -0.47049806 -0.072205044
000020 42 5f 3f 3d d4 a9 0b 3f 53 a6 bb 3e 8b d3 49 be
       0.046721704 0.5455601 0.36650333 -0.19709603
000030 ea 64 da bd 6e 47 fa bd 24 86 67 be 13 76 a7 3e
       -0.10663779 -0.122206554 -0.22609764 0.3270727
000040 e2 d3 13 be 5b af 32 3d 3f e1 0b 3e a2 b1 c6 bc
       -0.14436296 0.043624263 0.13660143 -0.024254624
000050 ed 40 d9 3b 11 31 42 bd 0a 84 f9 bd 31 3f 74 3d
       0.006630054 -0.047410075 -0.121833876 0.059630577
000060 4d 9a 1d bd 1a dd 93 3d 30 36 a7 3d 8f 5d 38 bd
       -0.03847723 0.07219906 0.08164632 -0.0450111
000070 ec 7f 24 bd 15 42 06 3e 08 a0 95 bd 80 3f 0e 3e
       -0.04016106 0.13111146 -0.07305914 0.13891411
000080 47 8a 39 be 9d 14 30 3e 53 17 a9 be f4 e0 56 3d
       -0.18119155 0.17195363 -0.33025607 0.052460626
000090 d9 22 db bd b2 d6 31 bc af 63 68 3e c3 51 68 3d
       -0.10700006 -0.01085441 0.22694276 0.0567186
0000a0 7d 08 5d be a3 5f e3 3d 26 71 71 be 5d 50 ae 3e
       -0.2158527 0.11102226 -0.23578319 0.34045687
0000b0 b1 d2 6d 3d 08 77 3e be 7c e2 0e bd 72 ab 09 bd
       0.05806226 -0.18600094 -0.03488396 -0.03361077
0000c0 69 2b 72 be cc 3b 2e be 62 1d d0 be 5f 82 a0 bd
       -0.23649372 -0.17014998 -0.40647417 -0.07837366
0000d0 aa 6b d1 be 70 1a 9c bf f9 37 43 bf d5 74 78 3d
       -0.40902454 -1.2195568 -0.7625728 0.060658295
0000e0 3c d4 a8 3d 91 63 b6 bd fa 50 bd bd 5e b4 79 bd
       0.082436055 -0.089057095 -0.09243961 -0.060963027
0000f0 20 10 6c bc 4b d3 3a bf c4 49 5e bf 25 d8 40 3e
       -0.014408141 -0.7297866 -0.8683131 0.18832453
000100 d1 54 d1 3c e4 f4 94 bd 96 6a 15 be e7 cb 39 3d
       0.025553139 -0.07273272 -0.1459144 0.045360472
000110 11 7d e3 bd 3e 52 e3 bd 4c 16 f4 bb fb 43 14 be
       -0.11107839 -0.11099671 -0.007448947 -0.14479057
000120 d1 7d f7 3e 84 e0 a1 be 7e f8 cf be 26 00 8b be
       0.48338178 -0.31616604 -0.40619272 -0.2714855
000130 06 05 43 be fb c0 be be bd 06 ef bd 4d 4c e7 3c
       -0.19044885 -0.37256607 -0.11671207 0.028234625
000140 69 24 70 3e 99 65 35 bd 9e 9f 04 3d cf 78 38 be
       0.2345139 -0.044286344 0.032378785 -0.18014835
000150 d3 e6 82 be 56 df 88 be dd 77 f8 be 0d 95 2f 3e
       -0.2556673 -0.26732892 -0.48528948 0.17146702
000160 46 8e 03 3e 1a fc 19 bd 16 ca a0 bc ce d5 99 bc
       0.12847242 -0.03759394 -0.019627612 -0.018778708
000170 6b 01 34 3e 08 d4 0a be 44 4e 28 be 70 06 4c 3e
       0.17578666 -0.13557446 -0.16436106 0.1992433
000180 f7 8f 7f 3e ac 52 e3 3d 7c 05 18 3e 55 56 87 bd
       0.24957262 0.11099753 0.14845842 -0.066082634
000190 4c 8f 2d b8 bc 16 2a bc fb 07 a4 bd b9 51 f9 bc
       -4.137987e-05 -0.010381397 -0.08009335 -0.030434476
0001a0 f1 05 f2 3d 56 5d 87 3e 9a 37 a2 3d b8 60 08 3e
       0.118175395 0.26438397 0.079207614 0.13318145
0001b0 94 ab 4f 3e f2 c6 7c ba d0 36 06 be c8 17 07 3d
       0.20280296 -0.0009642682 -0.13106847 0.032981664
0001c0 0f 06 5b 3d 2a 7d 8e bd f2 c4 2b bf 62 89 a5 bc
       0.053472575 -0.06957467 -0.6709739 -0.02020711
0001d0 8f 11 47 3e 38 c5 43 bf 48 bb 45 bf 44 d4 89 bd
       0.19440292 -0.76472807 -0.77238894 -0.067299396
0001e0 9e 27 b1 be df 77 88 be b2 af 69 bf dd 4f fb bc
       -0.34600538 -0.26653954 -0.91283715 -0.03067773
0001f0 ff fb c2 be ff 26 82 bf bf 48 3e bf 31 f3 4c be
       -0.38082883 -1.0168151 -0.7432975 -0.20014645
000200 81 ea 3b bd 53 3f c0 bd 6d 52 34 3e ad 43 be be
       -0.045877937 -0.09387078 0.17609568 -0.37161008
000210 49 5a 25 3c 8b 5a 32 3d 81 83 64 3c 1d 35 af 3c
       0.010092326 0.04354338 0.013947369 0.021387631
000220 79 61 08 bf 5b 84 a3 be d0 61 42 bd 77 ed 96 be
       -0.5327373 -0.31936917 -0.047456563 -0.29478046
000230 cf a2 5c 3d a5 d4 f8 3d b8 80 a6 3e d7 a0 34 bd
       0.053866204 0.12149934 0.3252008 -0.0440987
000240 b9 01 07 bf 49 65 22 be 30 8c e8 3d 65 52 76 be
       -0.52737004 -0.1585895 0.11354864 -0.24054869
000250 3e ed 5c bc 4f ad 40 bd 38 91 c5 bd 13 e0 17 3d
       -0.013484297 -0.04704028 -0.09646839 0.03707893
000260 9c e2 ae be c0 6e 1d bd 95 70 f6 3d 22 e0 a2 3e
       -0.34157264 -0.038435698 0.12033192 0.31811625
000270 84 d3 03 be 19 9a 0b be a8 c4 1f 3e 77 ff 36 bc
       -0.12873656 -0.13633002 0.15602362 -0.011169306
000280 c3 cd 89 bc ce ba b2 bc aa 17 ca bd df 60 0c be
       -0.016821748 -0.021817591 -0.09867795 -0.13708828
000290 40 0b a8 bd 1b 43 89 be c1 3f 7e be 1c 23 72 3e
       -0.08205271 -0.2680901 -0.24829008 0.23646206
0002a0 8e 8a 99 3e 5c 5a ea 3c 2e ad 46 3e ab 49 7e be
       0.2998852 0.02860754 0.19402 -0.2483279
0002b0 ee 1c ba 3d 8c 37 8f be 3c ab 5c be 64 05 6c bd
       0.09087549 -0.27972066 -0.21549696 -0.05762233
0002c0 a7 9f 2f 3d b7 13 94 bc 03 c6 ea 3d 65 d3 32 bd
       0.042876866 -0.018075807 0.11463549 -0.043658633
0002d0 ea e8 97 3e 8f c0 21 be d2 de 18 be 63 13 3f be
       0.29669887 -0.15796112 -0.14928749 -0.18659739
0002e0 e9 a1 e3 3d 58 98 06 be 74 01 48 be 4e df 37 3e
       0.11114866 -0.13144052 -0.19531804 0.17956278
0002f0 85 bc d4 3d 8d c1 0d 3f fe 60 0d 3e 8a f9 83 be
       0.1038752 0.5537346 0.13806531 -0.2577632
000300 4b ff 8d 3c 21 ab 11 3c 35 64 b5 3d b9 fe 3c 3e
       0.017333647 0.008890898 0.088570036 0.18456544
000310 60 d9 a0 3c 04 9d dd bd c6 01 65 bd 35 1f 02 3f
       0.019634902 -0.10820964 -0.055909894 0.5082887
000320 14 c3 0d bc 92 43 12 3e ff 6c 98 bd 5f 88 a4 3d
       -0.008652467 0.14283589 -0.07442664 0.08033823
000330 0c f0 f8 3d 57 03 1b be 57 aa f5 bd e6 49 02 be
       0.1215516 -0.15137993 -0.1199538 -0.12723503
000340 e9 ab 8d bd e1 cc 1e bc 24 3d a9 3d 47 05 0f be
       -0.06917555 -0.009692402 0.08263615 -0.13966857
000350 92 f4 1b 3e 99 ca 32 bd a4 0b b7 bd 60 cf 16 be
       0.15230015 -0.043650243 -0.08937767 -0.14727545
000360 e4 5d 0d be 26 43 0a be da 6c 15 3e f7 5a 3a be
       -0.13805348 -0.13502178 0.14592305 -0.18198763
000370 1c b8 04 be 56 d5 59 bc eb fd a0 bd e9 dc 86 bd
       -0.12960857 -0.013295492 -0.07860931 -0.06585104
000380 c9 6e a1 bc 2d db 09 be 49 0f a1 bd 9a ca f3 bd
       -0.019706147 -0.13462515 -0.078642435 -0.119038776
000390 3c e0 42 bd 40 ed a9 bd b5 e2 f8 bd 11 36 df bd
       -0.047577128 -0.08297205 -0.12152616 -0.10898984
0003a0 08 1d 5c 3d 4c 76 f5 bd 75 4c 1a 3e 74 3f a8 bc
       0.053738624 -0.11985454 0.15068229 -0.02053807
0003b0 6e 1c 8c 3d 3f 54 2a bc 0b a3 bd bd 7d dc 21 be
       0.0684136 -0.010396062 -0.092596136 -0.15806766
0003c0 52 2d 46 3e 97 6d 1a 3e 82 28 bc bb 11 70 fb 3d
       0.19353226 0.15080868 -0.0057421336 0.12277234
0003d0 0f b3 6e 3d ae 7a 54 3e 5f f4 f6 bc 36 4e f5 bd
       0.058276232 0.20749924 -0.030145822 -0.11977808
0003e0 b5 95 e4 bd d9 f9 af 3d 48 15 95 3e 54 4a 2d bd
       -0.11161367 0.085925765 0.291178 -0.042307213
0003f0 55 5c bf bd e8 67 a8 bd 43 87 9c bd bc ed 80 bd
       -0.09343783 -0.082229435 -0.076429866 -0.06295344

sequential/conv2d_1/Conv2D_bias f4 [16]
000000 fc 57 a3 3f 9c 16 f2 3f 11 11 8f be e6 27 3b 3c
       1.2761226 1.891315 -0.27942708 0.011423087
000010 cc 0d 9c bf 1c 74 ac bd 61 f2 3f bd fc c9 3d 3f
       -1.219171 -0.084205836 -0.04686201 0.7413633
000020 c6 68 ec 3e 7e 65 5b 3f e7 a7 88 bf 21 b3 7b bf
       0.46173686 0.8570174 -1.067624 -0.98320204
000030 2e dc ed 3e 3e 95 5c be dc 88 50 bf 4a 60 ac be
       0.46457046 -0.21541306 -0.8145883 -0.33667213

sequential/dense/MatMul/ReadVariableOp/transpose f4 [16, 224]
000000 61 39 e2 3e 93 21 42 3f 1a 29 17 3d e3 0d a5 3e
       0.44184402 0.7583248 0.036904432 0.32237157
000010 66 46 35 be dc 27 11 3e c3 63 61 3e 0f 42 49 3e
       -0.17702636 0.14175361 0.22010712 0.19654106
000020 5f ad b3 3e 84 26 4b 3f ac 3d 51 be fa ad fd 3c
       0.3509321 0.79355645 -0.20433682 0.030966748
000030 6d 4b 2c 3e 00 46 8c bd 7a 50 83 bd 9e 89 4d 3d
       0.16825648 -0.06849289 -0.06411834 0.05018007
000040 e2 58 50 3e 51 3f 4c 3e d8 fa bb bd a9 23 51 be
       0.20346406 0.19946028 -0.09178704 -0.2042376
000050 bd 9a 90 be 44 a8 ac 3d 13 4d af be 23 f8 0d be
       -0.28243056 0.084305316 -0.3423849 -0.13864188
000060 6e 1f 6b 3d 2a 87 7f bb 88 6b 8a bd c4 58 9f be
       0.05740302 -0.0038990476 -0.06758791 -0.3112241
000070 1f a2 fa 3d dc 84 a0 be a9 f9 a0 be 3e 4c ef 3d
       0.122379534 -0.31351364 -0.31440476 0.11684464
000080 1c 90 ee bd ac ff d5 3d b5 89 92 3d 8e 5a 35 be
       -0.116485804 0.10449156 0.07155172 -0.17710325
000090 42 a4 46 be e6 64 34 3d 94 24 d8 bd 15 f3 74 3c
       -0.19398597 0.044041537 -0.10553852 0.014950533
0000a0 41 c1 a2 bd 93 32 1b 3e f7 e8 77 3e 8c 63 c3 be
       -0.079470165 0.15156011 0.24209963 -0.38161886
0000b0 c6 e9 8c 3e 06 b6 50 be 4c 6a 73 be 02 69 f8 3d
       0.27522105 -0.20381936 -0.23771018 0.12129404
0000c0 8f 53 36 bd 29 1a 81 3e c5 8f a1 bd 5a 8d 28 be
       -0.04451328 0.2521527 -0.0788875 -0.16460171
0000d0 1a 35 0e be 3d b7 da 3b 3b 2e 77 3d 9a 29 89 bc
       -0.13887444 0.0066746757 0.060346823 -0.01674347
0000e0 cc be 9a 3d dc 2b bf 3e 1b 46 6c 3e d2 4f c1 be
       0.07555923 0.3733815 0.23073618 -0.3775621
0000f0 96 ac 58 3e 4c 46 91 be 72 1f 87 be 9f e5 01 3d
       0.21159586 -0.28373945 -0.26391178 0.031713124
000100 05 7f 2a bd 1e df 3b 3e be 77 18 3e 27 60 83 bd
       -0.04162504 0.18346831 0.14889428 -0.06414824
000110 1c 12 f9 bd f8 1e 14 3d d0 28 96 3d 68 0d a1 3d
       -0.12161657 0.036162347 0.07332003 0.07863885
000120 f0 33 e6 b8 62 2a 6a 3e c5 ef 0b 3e ba 50 30 be
       -0.00010976929 0.2286773 0.13665684 -0.17218295
000130 0e 62 b8 bd ef 72 92 be 22 cb b7 be 4d f2 2a bb
       -0.090030774 -0.28603312 -0.35897166 -0.0026084364
000140 15 66 30 bd c8 c8 2c 3e 49 55 46 3d 78 39 34 3e
       -0.043066103 0.16873467 0.048421178 0.17600048
000150 9f 9f a0 bd fb 06 7c 3c 65 24 02 3e 46 18 bd 3c
       -0.07842945 0.015382524 0.12709196 0.023082864
000160 eb 47 9b bc 04 9e 54 3e 06 5d d9 3d 3c e8 9e be
       -0.018955192 0.20763403 0.10613446 -0.31036556
000170 08 e9 12 3e 54 71 85 be 9e b1 92 be 83 9c 83 bd
       0.14346707 -0.26063025 -0.28651136 -0.064263366
000180 9a a4 36 bb 91 8e d1 3d 09 0b 3e bc 45 a2 2a 3d
       -0.0027869106 0.102322705 -0.011599311 0.04165866
000190 9e af 39 be 24 02 fa bc 7a 41 94 3c 50 37 88 bd
       -0.18133399 -0.030518599 0.018097628 -0.06651175
0001a0 dc 19 5f 3e 87 c8 85 3e c2 04 8e 3d 27 f6 67 bd
       0.21787208 0.26129553 0.06934501 -0.056631234
0001b0 5e c5 9d 3d 45 9a 80 bd 6d 97 13 be aa 02 9d bc
       0.077036604 -0.062794246 -0.14413233 -0.01916631
0001c0 8a 87 d4 3a b9 71 59 3d b5 36 33 be 74 f4 16 3c
       0.001621471 0.05308697 -0.17501338 0.009213556
0001d0 23 66 6a be 68 33 27 3c 7e 4e 04 3b f1 11 c2 3c
       -0.22890525 0.010205127 0.0020188387 0.023690196
0001e0 fa 69 4f 3b 7d d1 a3 3e 87 0d a5 3d e2 ff ad 3d
       0.003164886 0.31995764 0.08059221 0.084960714
0001f0 81 b4 4b 3d 4e fe 76 bd 12 e7 5a be 3a 6b 73 bb
       0.04973269 -0.060301118 -0.21377209 -0.003714277
000200 7b b9 4d 3e 6d b7 ac 3d b3 e9 b6 bd e4 f7 ef bd
       0.20090286 0.08433423 -0.08931293 -0.11717203
000210 58 e5 32 bc 03 77 22 3e 08 a6 cf 3d 7a 57 ea bc
       -0.010918938 0.15865712 0.1013909 -0.028606165
000220 8c ec 9d 3e ce 29 2a 3e 25 4f 5f 3e 7b 2c c2 bd
       0.30844533 0.1661751 0.21807535 -0.0948114
000230 96 ad b1 3d 2f 80 af bd 5d e1 6d be 9e 87 dc 3c
       0.08675687 -0.08569371 -0.232305 0.026920136
000240 dc 70 73 3e 5e f7 a8 3d 95 d5 ce 3c 83 53 b7 bd
       0.23773521 0.082503065 0.025248328 -0.089514755
000250 21 64 dc bc 32 6a 59 3e a4 d2 04 bd c2 91 1b be
       -0.026903214 0.21231917 -0.032427445 -0.15192321
000260 fc 1b 0f 3e e0 34 b1 3e 03 67 90 3b 30 0e ce 3d
       0.13975519 0.34610653 0.004406811 0.100613
000270 c6 19 77 3a 97 2c e7 bd fb d4 74 be 8c 34 e8 3c
       0.0009426143 -0.11287802 -0.2390937 0.028345369
000280 b6 f2 a6 3e 45 61 a7 bd 98 70 2a be 42 aa 03 be
       0.3260705 -0.081728496 -0.16644514 -0.12857917
000290 77 7d 0d bd 21 55 93 3d 78 68 29 be 76 a3 27 bd
       -0.03454348 0.071939714 -0.16543758 -0.040927373
0002a0 93 3a 8b 3e 5d 76 22 3e e7 3b 29 3e 65 be 0f be
       0.27193126 0.15865465 0.16526757 -0.14037473
0002b0 d6 7d 09 be 91 f5 87 bc 79 cc 81 be 15 dd fd 3d
       -0.13426909 -0.016596587 -0.25351313 0.12395684
0002c0 71 c9 23 3e c8 d9 bb 3d 79 82 25 be cb 4f a8 3d
       0.15994813 0.09172398 -0.16163053 0.08218344
0002d0 95 97 2a be b0 0c fa bc 57 2d 1f be 45 fc 03 3d
       -0.16659386 -0.030523628 -0.1554464 0.032223005
0002e0 e2 b1 a9 3e b8 cc 11 3e 1a 7d fe bc cb 7e 26 be
       0.33143526 0.1423825 -0.031065512 -0.16259305
0002f0 1b a7 80 3d 1b b9 62 3b c4 34 93 be 90 ee 10 3d
       0.06281873 0.0034595195 -0.28751194 0.03538376
000300 18 60 00 be 89 93 cd bc 0b 46 0d be 7a e6 01 be
       -0.12536657 -0.025094764 -0.1379625 -0.12685576
000310 95 85 f3 bd ce 25 ce 3c 56 c4 a4 bd 15 fd 2d bd
       -0.11890713 0.025164511 -0.080452606 -0.042477686
000320 98 4b e8 3e 8a c0 42 3c dc b2 0e be 34 87 10 be
       0.45370173 0.011886725 -0.13935417 -0.14114076
000330 52 e2 8f 3d d4 9e 0e be 30 c3 a3 be 8b 3c b8 3d
       0.07025589 -0.13927776 -0.31984854 0.08995923
000340 ec 44 aa 3d 1d 7e 13 3e 91 b9 47 3c f6 20 de 3d
       0.08313927 0.14403577 0.012190239 0.108461305
000350 38 b4 55 be b3 b5 12 3c c2 96 98 3d 5e a0 56 3d
       -0.20869529 0.008954453 0.0745063 0.05239903
000360 a7 e2 a9 bc 0e fd 0e 3e 5b f6 88 bd 3e 1d 6a bd
       -0.02073796 0.1396372 -0.066876136 -0.057156794
000370 d6 23 a7 3d 5f eb 2d bc 38 95 75 bd 28 cd eb 3d
       0.08161132 -0.010615199 -0.05995676 0.1151374
000380 70 63 b3 bd 41 15 23 bd 17 e2 a2 bd 3f ac fe bd
       -0.087592006 -0.03981519 -0.079532795 -0.12435197
000390 7e e4 be bd 61 55 68 be 79 39 d4 3d 5f 6e 99 bd
       -0.09320925 -0.2268882 0.103625245 -0.07491755
0003a0 5d f5 f7 bd cc 83 5d 3e 89 25 78 bd c2 ba 00 be
       -0.12107346 0.21632308 -0.06058267 -0.12571242
0003b0 c8 bb 56 3c d9 ac 25 3d 9a da 2d be 8f e1 9b bd
       0.013106294 0.040448043 -0.16977921 -0.07611381
0003c0 4a 56 77 bd 76 41 af 3d 67 81 9f 3c 12 bb 57 3d
       -0.060385026 0.085574076 0.019470884 0.05266864
0003d0 a7 ed 24 be 5d 22 61 bc 06 2a ee 3a ef ca fb bd
       -0.16106282 -0.013741103 0.0018170483 -0.12294566
0003e0 83 4f a8 3d 82 d0 af bd 16 14 0e be 57 a8 19 be
       0.08218291 -0.085846916 -0.1387485 -0.15005623
0003f0 7e 21 54 3e 25 7a 30 be 08 57 26 be 24 95 bb bd
       0.20715901 -0.17234094 -0.16244137 -0.09159306

sequential/dense/MatMul_bias f4 [16]
000000 7a 70 86 3f 56 ca 0f be 12 65 5c be 23 85 3a be
       1.0503075 -0.14042029 -0.2152293 -0.1821485
000010 f3 21 1d bf d5 d4 08 40 ea 31 bb be 6b c4 6e 3f
       -0.6137993 2.1379902 -0.3656152 0.9326846
000020 7b 2d 31 be 5e bb a9 3d 9f 85 26 be 88 1d 22 3e
       -0.17302506 0.082876906 -0.1626191 0.15831578
000030 ec 3d c2 be 38 cc 0c 40 23 00 e8 3e ae 8e ea 3e
       -0.37937868 2.1999645 0.45312604 0.4581198

sequential/dense_1/MatMul/ReadVariableOp/transpose f4 [4, 16]
000000 6b 10 ad be 9a 75 a7 3e 0b de f9 bd e1 e6 f3 3e
       -0.33801588 0.3270691 -0.122005545 0.47637084
000010 22 07 a0 3e 64 3f 5f 3d 62 92 c0 3d a3 3a 40 be
       0.31255442 0.054503813 0.0940292 -0.18772368
000020 84 2b ac bd 4c 35 b5 3d 6b 8c 11 bc 22 91 99 3e
       -0.084067374 0.08848056 -0.008883576 0.2999354
000030 d8 2e 40 be c9 83 69 be 2f 2f aa be e9 04 9f 3e
       -0.1876787 -0.22804178 -0.33239123 0.31058434
000040 a4 f6 bd be 7d 55 d7 be 74 81 44 be 8f 2c da 3e
       -0.37102234 -0.4205741 -0.19190007 0.4261212
000050 58 b8 7b 3e 97 e6 45 bd a8 34 88 be 65 7d 40 be
       0.2458204 -0.04831561 -0.26602674 -0.18797834
000060 5e 14 bb be 12 2c 60 3d 12 9d 0b bd 34 55 84 3e
       -0.36538976 0.05472953 -0.03408534 0.25846255
000070 61 9e 8a be 32 fb 82 be b4 54 92 be 03 c3 91 3e
       -0.2707396 -0.25582272 -0.28580248 0.28469095
000080 d1 36 a7 be 09 53 ae be 2a be 37 be f3 98 9e bd
       -0.3265901 -0.34047726 -0.17943636 -0.077440165
000090 87 ba 69 3e 22 3e 8d 3c a3 d7 25 3e 69 fa 02 be
       0.22825061 0.017241541 0.1619554 -0.12790836
0000a0 26 53 f5 be f0 4b 0f 3e da a0 b7 3d 18 b6 b3 3e
       -0.47915 0.13993812 0.08966227 0.35099864
0000b0 d5 32 6a be 93 30 48 be 9a c3 5f be 73 41 aa 3e
       -0.22870953 -0.1954978 -0.2185196 0.3325306
0000c0 c5 99 96 be 55 bf 07 3e d6 6f 34 be 5b cb 1b be
       -0.29414192 0.13256581 -0.17620787 -0.15214293
0000d0 12 30 8a 3e 58 5e 1f 3d 16 8e 53 3e f0 a2 2e be
       0.269898 0.038908333 0.2065967 -0.17054343
0000e0 44 9e 9e be 5e d7 c4 3d 8e 1a 89 bb f4 37 b7 3e
       -0.30980122 0.096113905 -0.004184074 0.35784876
0000f0 84 04 7f be b0 88 12 be 72 9f 9f be 0a c8 b4 3e
       -0.24904066 -0.14309955 -0.31176335 0.35308868

sequential/dense_1/MatMul_bias f4 [4]
000000 61 4c f9 bf b8 ab 42 40 c1 2f ef bf 52 ec 86 bf
       -1.9476434 3.0417309 -1.8686448 -1.0540869
